…
 layer_normalization_2 (LayerNo  (None, 128, 128, 64  32768      ['conv2d_3[0][0]']               
 rmalization)                   )                                                                 
                                                                                                  
 leaky_re_lu_3 (LeakyReLU)      (None, 128, 128, 64  0           ['layer_normalization_2[0][0]']  
                                )                                                                 
                                                                                                  
 max_pooling2d_1 (MaxPooling2D)  (None, 64, 64, 64)  0           ['leaky_re_lu_3[0][0]']          
                                                                                                  
 conv2d_4 (Conv2D)              (None, 64, 64, 128)  73856       ['max_pooling2d_1[0][0]']        
                                                                                                  
 layer_normalization_3 (LayerNo  (None, 64, 64, 128)  8192       ['conv2d_4[0][0]']               
 rmalization)                                                                                     
                                                                                                  
 leaky_re_lu_4 (LeakyReLU)      (None, 64, 64, 128)  0           ['layer_normalization_3[0][0]']  
                                                                                                  
 conv2d_5 (Conv2D)              (None, 64, 64, 128)  147584      ['leaky_re_lu_4[0][0]']          
                                                                                                  
 layer_normalization_4 (LayerNo  (None, 64, 64, 128)  8192       ['conv2d_5[0][0]']               
 rmalization)                                                                                     
                                                                                                  
 leaky_re_lu_5 (LeakyReLU)      (None, 64, 64, 128)  0           ['layer_normalization_4[0][0]']  
                                                                                                  
 max_pooling2d_2 (MaxPooling2D)  (None, 32, 32, 128)  0          ['leaky_re_lu_5[0][0]']          
                                                                                                  
 conv2d_6 (Conv2D)              (None, 32, 32, 256)  295168      ['max_pooling2d_2[0][0]']        
                                                                                                  
 layer_normalization_5 (LayerNo  (None, 32, 32, 256)  2048       ['conv2d_6[0][0]']               
 rmalization)                                                                                     
                                                                                                  
 leaky_re_lu_6 (LeakyReLU)      (None, 32, 32, 256)  0           ['layer_normalization_5[0][0]']  
                                                                                                  
 conv2d_7 (Conv2D)              (None, 32, 32, 256)  590080      ['leaky_re_lu_6[0][0]']          
                                                                                                  
 layer_normalization_6 (LayerNo  (None, 32, 32, 256)  2048       ['conv2d_7[0][0]']               
 rmalization)                                                                                     
                                                                                                  
 leaky_re_lu_7 (LeakyReLU)      (None, 32, 32, 256)  0           ['layer_normalization_6[0][0]']  
                                                                                                  
 max_pooling2d_3 (MaxPooling2D)  (None, 16, 16, 256)  0          ['leaky_re_lu_7[0][0]']          
                                                                                                  
 conv2d_8 (Conv2D)              (None, 16, 16, 512)  1180160     ['max_pooling2d_3[0][0]']        
                                                                                                  
 layer_normalization_7 (LayerNo  (None, 16, 16, 512)  512        ['conv2d_8[0][0]']               
 rmalization)                                                                                     
                                                                                                  
 leaky_re_lu_8 (LeakyReLU)      (None, 16, 16, 512)  0           ['layer_normalization_7[0][0]']  
                                                                                                  
 conv2d_9 (Conv2D)              (None, 16, 16, 512)  2359808     ['leaky_re_lu_8[0][0]']          
                                                                                                  
 layer_normalization_8 (LayerNo  (None, 16, 16, 512)  512        ['conv2d_9[0][0]']               
 rmalization)                                                                                     
                                                                                                  
 leaky_re_lu_9 (LeakyReLU)      (None, 16, 16, 512)  0           ['layer_normalization_8[0][0]']  
                                                                                                  
 conv2d_10 (Conv2D)             (None, 16, 16, 512)  2359808     ['leaky_re_lu_9[0][0]']          
                                                                                                  
 layer_normalization_9 (LayerNo  (None, 16, 16, 512)  512        ['conv2d_10[0][0]']              
 rmalization)                                                                                     
                                                                                                  
 leaky_re_lu_10 (LeakyReLU)     (None, 16, 16, 512)  0           ['layer_normalization_9[0][0]']  
                                                                                                  
 conv2d_11 (Conv2D)             (None, 16, 16, 512)  2359808     ['leaky_re_lu_10[0][0]']         
                                                                                                  
 layer_normalization_10 (LayerN  (None, 16, 16, 512)  512        ['conv2d_11[0][0]']              
 ormalization)                                                                                    
                                                                                                  
 leaky_re_lu_11 (LeakyReLU)     (None, 16, 16, 512)  0           ['layer_normalization_10[0][0]'] 
                                                                                                  
 tf.__operators__.add (TFOpLamb  (None, 16, 16, 512)  0          ['leaky_re_lu_11[0][0]',         
 da)                                                              'leaky_re_lu_9[0][0]']          
                                                                                                  
 conv2d_12 (Conv2D)             (None, 16, 16, 512)  2359808     ['tf.__operators__.add[0][0]']   
                                                                                                  
 layer_normalization_11 (LayerN  (None, 16, 16, 512)  512        ['conv2d_12[0][0]']              
 ormalization)                                                                                    
                                                                                                  
 leaky_re_lu_12 (LeakyReLU)     (None, 16, 16, 512)  0           ['layer_normalization_11[0][0]'] 
                                                                                                  
 conv2d_13 (Conv2D)             (None, 16, 16, 512)  2359808     ['leaky_re_lu_12[0][0]']         
                                                                                                  
 layer_normalization_12 (LayerN  (None, 16, 16, 512)  512        ['conv2d_13[0][0]']              
 ormalization)                                                                                    
                                                                                                  
 leaky_re_lu_13 (LeakyReLU)     (None, 16, 16, 512)  0           ['layer_normalization_12[0][0]'] 
                                                                                                  
 tf.__operators__.add_1 (TFOpLa  (None, 16, 16, 512)  0          ['leaky_re_lu_13[0][0]',         
 mbda)                                                            'tf.__operators__.add[0][0]']   
                                                                                                  
 conv2d_14 (Conv2D)             (None, 16, 16, 512)  2359808     ['tf.__operators__.add_1[0][0]'] 
                                                                                                  
 layer_normalization_13 (LayerN  (None, 16, 16, 512)  512        ['conv2d_14[0][0]']              
 ormalization)                                                                                    
                                                                                                  
 leaky_re_lu_14 (LeakyReLU)     (None, 16, 16, 512)  0           ['layer_normalization_13[0][0]'] 
                                                                                                  
 conv2d_15 (Conv2D)             (None, 16, 16, 512)  2359808     ['leaky_re_lu_14[0][0]']         
                                                                                                  
 layer_normalization_14 (LayerN  (None, 16, 16, 512)  512        ['conv2d_15[0][0]']              
 ormalization)                                                                                    
                                                                                                  
 leaky_re_lu_15 (LeakyReLU)     (None, 16, 16, 512)  0           ['layer_normalization_14[0][0]'] 
                                                                                                  
 conv2d_transpose (Conv2DTransp  (None, 32, 32, 256)  1179904    ['leaky_re_lu_15[0][0]']         
 ose)                                                                                             
                                                                                                  
 leaky_re_lu_16 (LeakyReLU)     (None, 32, 32, 256)  0           ['conv2d_transpose[0][0]']       
                                                                                                  
 tf.concat (TFOpLambda)         (None, 32, 32, 512)  0           ['leaky_re_lu_7[0][0]',          
                                                                  'leaky_re_lu_16[0][0]']         
                                                                                                  
 conv2d_17 (Conv2D)             (None, 32, 32, 256)  1179904     ['tf.concat[0][0]']              
                                                                                                  
 layer_normalization_15 (LayerN  (None, 32, 32, 256)  2048       ['conv2d_17[0][0]']              
 ormalization)                                                                                    
                                                                                                  
 leaky_re_lu_18 (LeakyReLU)     (None, 32, 32, 256)  0           ['layer_normalization_15[0][0]'] 
                                                                                                  
 conv2d_18 (Conv2D)             (None, 32, 32, 256)  590080      ['leaky_re_lu_18[0][0]']         
                                                                                                  
 layer_normalization_16 (LayerN  (None, 32, 32, 256)  2048       ['conv2d_18[0][0]']              
 ormalization)                                                                                    
                                                                                                  
 leaky_re_lu_19 (LeakyReLU)     (None, 32, 32, 256)  0           ['layer_normalization_16[0][0]'] 
                                                                                                  
 conv2d_19 (Conv2D)             (None, 32, 32, 256)  590080      ['leaky_re_lu_19[0][0]']         
                                                                                                  
 layer_normalization_17 (LayerN  (None, 32, 32, 256)  2048       ['conv2d_19[0][0]']              
 ormalization)                                                                                    
                                                                                                  
 leaky_re_lu_20 (LeakyReLU)     (None, 32, 32, 256)  0           ['layer_normalization_17[0][0]'] 
                                                                                                  
 conv2d_20 (Conv2D)             (None, 32, 32, 256)  590080      ['leaky_re_lu_20[0][0]']         
                                                                                                  
 layer_normalization_18 (LayerN  (None, 32, 32, 256)  2048       ['conv2d_20[0][0]']              
 ormalization)                                                                                    
                                                                                                  
 leaky_re_lu_21 (LeakyReLU)     (None, 32, 32, 256)  0           ['layer_normalization_18[0][0]'] 
                                                                                                  
 tf.__operators__.add_3 (TFOpLa  (None, 32, 32, 256)  0          ['leaky_re_lu_21[0][0]',         
 mbda)                                                            'leaky_re_lu_19[0][0]']         
                                                                                                  
 conv2d_21 (Conv2D)             (None, 32, 32, 256)  590080      ['tf.__operators__.add_3[0][0]'] 
                                                                                                  
 layer_normalization_19 (LayerN  (None, 32, 32, 256)  2048       ['conv2d_21[0][0]']              
 ormalization)                                                                                    
                                                                                                  
 leaky_re_lu_22 (LeakyReLU)     (None, 32, 32, 256)  0           ['layer_normalization_19[0][0]'] 
                                                                                                  
 conv2d_22 (Conv2D)             (None, 32, 32, 256)  590080      ['leaky_re_lu_22[0][0]']         
                                                                                                  
 layer_normalization_20 (LayerN  (None, 32, 32, 256)  2048       ['conv2d_22[0][0]']              
 ormalization)                                                                                    
                                                                                                  
 leaky_re_lu_23 (LeakyReLU)     (None, 32, 32, 256)  0           ['layer_normalization_20[0][0]'] 
                                                                                                  
 tf.__operators__.add_4 (TFOpLa  (None, 32, 32, 256)  0          ['leaky_re_lu_23[0][0]',         
 mbda)                                                            'tf.__operators__.add_3[0][0]'] 
                                                                                                  
 conv2d_23 (Conv2D)             (None, 32, 32, 256)  590080      ['tf.__operators__.add_4[0][0]'] 
                                                                                                  
 layer_normalization_21 (LayerN  (None, 32, 32, 256)  2048       ['conv2d_23[0][0]']              
 ormalization)                                                                                    
                                                                                                  
 leaky_re_lu_24 (LeakyReLU)     (None, 32, 32, 256)  0           ['layer_normalization_21[0][0]'] 
                                                                                                  
 conv2d_24 (Conv2D)             (None, 32, 32, 256)  590080      ['leaky_re_lu_24[0][0]']         
                                                                                                  
 layer_normalization_22 (LayerN  (None, 32, 32, 256)  2048       ['conv2d_24[0][0]']              
 ormalization)                                                                                    
                                                                                                  
 conv2d_transpose_1 (Conv2DTran  (None, 32, 32, 256)  1179904    ['leaky_re_lu_15[0][0]']         
 spose)                                                                                           
                                                                                                  
 leaky_re_lu_25 (LeakyReLU)     (None, 32, 32, 256)  0           ['layer_normalization_22[0][0]'] 
                                                                                                  
 leaky_re_lu_17 (LeakyReLU)     (None, 32, 32, 256)  0           ['conv2d_transpose_1[0][0]']     
                                                                                                  
 tf.concat_1 (TFOpLambda)       (None, 32, 32, 512)  0           ['leaky_re_lu_25[0][0]',         
                                                                  'leaky_re_lu_17[0][0]']         
                                                                                                  
 conv2d_25 (Conv2D)             (None, 32, 32, 256)  1179904     ['tf.concat_1[0][0]']            
                                                                                                  
 layer_normalization_23 (LayerN  (None, 32, 32, 256)  2048       ['conv2d_25[0][0]']              
 ormalization)                                                                                    
                                                                                                  
 leaky_re_lu_26 (LeakyReLU)     (None, 32, 32, 256)  0           ['layer_normalization_23[0][0]'] 
                                                                                                  
 conv2d_26 (Conv2D)             (None, 32, 32, 256)  590080      ['leaky_re_lu_26[0][0]']         
                                                                                                  
 layer_normalization_24 (LayerN  (None, 32, 32, 256)  2048       ['conv2d_26[0][0]']              
 ormalization)                                                                                    
                                                                                                  
 leaky_re_lu_27 (LeakyReLU)     (None, 32, 32, 256)  0           ['layer_normalization_24[0][0]'] 
                                                                                                  
 conv2d_transpose_2 (Conv2DTran  (None, 64, 64, 128)  295040     ['leaky_re_lu_27[0][0]']         
 spose)                                                                                           
                                                                                                  
 leaky_re_lu_28 (LeakyReLU)     (None, 64, 64, 128)  0           ['conv2d_transpose_2[0][0]']     
                                                                                                  
 tf.concat_2 (TFOpLambda)       (None, 64, 64, 256)  0           ['leaky_re_lu_5[0][0]',          
                                                                  'leaky_re_lu_28[0][0]']         
                                                                                                  
 conv2d_28 (Conv2D)             (None, 64, 64, 128)  295040      ['tf.concat_2[0][0]']            
                                                                                                  
 conv2d_30 (Conv2D)             (None, 64, 64, 128)  819328      ['tf.concat_2[0][0]']            
                                                                                                  
 layer_normalization_25 (LayerN  (None, 64, 64, 128)  8192       ['conv2d_28[0][0]']              
 ormalization)                                                                                    
                                                                                                  
 layer_normalization_27 (LayerN  (None, 64, 64, 128)  8192       ['conv2d_30[0][0]']              
 ormalization)                                                                                    
                                                                                                  
 leaky_re_lu_30 (LeakyReLU)     (None, 64, 64, 128)  0           ['layer_normalization_25[0][0]'] 
                                                                                                  
 leaky_re_lu_32 (LeakyReLU)     (None, 64, 64, 128)  0           ['layer_normalization_27[0][0]'] 
                                                                                                  
 conv2d_29 (Conv2D)             (None, 64, 64, 128)  147584      ['leaky_re_lu_30[0][0]']         
                                                                                                  
 conv2d_31 (Conv2D)             (None, 64, 64, 128)  409728      ['leaky_re_lu_32[0][0]']         
                                                                                                  
 layer_normalization_26 (LayerN  (None, 64, 64, 128)  8192       ['conv2d_29[0][0]']              
 ormalization)                                                                                    
                                                                                                  
 layer_normalization_28 (LayerN  (None, 64, 64, 128)  8192       ['conv2d_31[0][0]']              
 ormalization)                                                                                    
                                                                                                  
 leaky_re_lu_31 (LeakyReLU)     (None, 64, 64, 128)  0           ['layer_normalization_26[0][0]'] 
                                                                                                  
 leaky_re_lu_33 (LeakyReLU)     (None, 64, 64, 128)  0           ['layer_normalization_28[0][0]'] 
                                                                                                  
 tf.concat_3 (TFOpLambda)       (None, 64, 64, 256)  0           ['leaky_re_lu_31[0][0]',         
                                                                  'leaky_re_lu_33[0][0]']         
                                                                                                  
 tf.__operators__.add_6 (TFOpLa  (None, 64, 64, 256)  0          ['tf.concat_3[0][0]',            
 mbda)                                                            'tf.concat_2[0][0]']            
                                                                                                  
 conv2d_32 (Conv2D)             (None, 64, 64, 128)  295040      ['tf.__operators__.add_6[0][0]'] 
                                                                                                  
 conv2d_34 (Conv2D)             (None, 64, 64, 128)  819328      ['tf.__operators__.add_6[0][0]'] 
                                                                                                  
 layer_normalization_29 (LayerN  (None, 64, 64, 128)  8192       ['conv2d_32[0][0]']              
 ormalization)                                                                                    
                                                                                                  
 layer_normalization_31 (LayerN  (None, 64, 64, 128)  8192       ['conv2d_34[0][0]']              
 ormalization)                                                                                    
                                                                                                  
 leaky_re_lu_34 (LeakyReLU)     (None, 64, 64, 128)  0           ['layer_normalization_29[0][0]'] 
                                                                                                  
 leaky_re_lu_36 (LeakyReLU)     (None, 64, 64, 128)  0           ['layer_normalization_31[0][0]'] 
                                                                                                  
 conv2d_33 (Conv2D)             (None, 64, 64, 128)  147584      ['leaky_re_lu_34[0][0]']         
                                                                                                  
 conv2d_35 (Conv2D)             (None, 64, 64, 128)  409728      ['leaky_re_lu_36[0][0]']         
                                                                                                  
 layer_normalization_30 (LayerN  (None, 64, 64, 128)  8192       ['conv2d_33[0][0]']              
 ormalization)                                                                                    
                                                                                                  
 layer_normalization_32 (LayerN  (None, 64, 64, 128)  8192       ['conv2d_35[0][0]']              
 ormalization)                                                                                    
                                                                                                  
 leaky_re_lu_35 (LeakyReLU)     (None, 64, 64, 128)  0           ['layer_normalization_30[0][0]'] 
                                                                                                  
 leaky_re_lu_37 (LeakyReLU)     (None, 64, 64, 128)  0           ['layer_normalization_32[0][0]'] 
                                                                                                  
 tf.concat_4 (TFOpLambda)       (None, 64, 64, 256)  0           ['leaky_re_lu_35[0][0]',         
                                                                  'leaky_re_lu_37[0][0]']         
                                                                                                  
 tf.__operators__.add_7 (TFOpLa  (None, 64, 64, 256)  0          ['tf.concat_4[0][0]',            
 mbda)                                                            'tf.__operators__.add_6[0][0]'] 
                                                                                                  
 conv2d_36 (Conv2D)             (None, 64, 64, 128)  295040      ['tf.__operators__.add_7[0][0]'] 
                                                                                                  
 conv2d_38 (Conv2D)             (None, 64, 64, 128)  819328      ['tf.__operators__.add_7[0][0]'] 
                                                                                                  
 layer_normalization_33 (LayerN  (None, 64, 64, 128)  8192       ['conv2d_36[0][0]']              
 ormalization)                                                                                    
                                                                                                  
 layer_normalization_35 (LayerN  (None, 64, 64, 128)  8192       ['conv2d_38[0][0]']              
 ormalization)                                                                                    
                                                                                                  
 leaky_re_lu_38 (LeakyReLU)     (None, 64, 64, 128)  0           ['layer_normalization_33[0][0]'] 
                                                                                                  
 leaky_re_lu_40 (LeakyReLU)     (None, 64, 64, 128)  0           ['layer_normalization_35[0][0]'] 
                                                                                                  
 conv2d_37 (Conv2D)             (None, 64, 64, 128)  147584      ['leaky_re_lu_38[0][0]']         
                                                                                                  
 conv2d_39 (Conv2D)             (None, 64, 64, 128)  409728      ['leaky_re_lu_40[0][0]']         
                                                                                                  
 layer_normalization_34 (LayerN  (None, 64, 64, 128)  8192       ['conv2d_37[0][0]']              
 ormalization)                                                                                    
                                                                                                  
 layer_normalization_36 (LayerN  (None, 64, 64, 128)  8192       ['conv2d_39[0][0]']              
 ormalization)                                                                                    
                                                                                                  
 leaky_re_lu_39 (LeakyReLU)     (None, 64, 64, 128)  0           ['layer_normalization_34[0][0]'] 
                                                                                                  
 leaky_re_lu_41 (LeakyReLU)     (None, 64, 64, 128)  0           ['layer_normalization_36[0][0]'] 
                                                                                                  
 tf.concat_5 (TFOpLambda)       (None, 64, 64, 256)  0           ['leaky_re_lu_39[0][0]',         
                                                                  'leaky_re_lu_41[0][0]']         
                                                                                                  
 tf.__operators__.add_8 (TFOpLa  (None, 64, 64, 256)  0          ['tf.concat_5[0][0]',            
 mbda)                                                            'tf.__operators__.add_7[0][0]'] 
                                                                                                  
 conv2d_40 (Conv2D)             (None, 64, 64, 128)  295040      ['tf.__operators__.add_8[0][0]'] 
                                                                                                  
 conv2d_42 (Conv2D)             (None, 64, 64, 128)  819328      ['tf.__operators__.add_8[0][0]'] 
                                                                                                  
 layer_normalization_37 (LayerN  (None, 64, 64, 128)  8192       ['conv2d_40[0][0]']              
 ormalization)                                                                                    
                                                                                                  
 layer_normalization_39 (LayerN  (None, 64, 64, 128)  8192       ['conv2d_42[0][0]']              
 ormalization)                                                                                    
                                                                                                  
 leaky_re_lu_42 (LeakyReLU)     (None, 64, 64, 128)  0           ['layer_normalization_37[0][0]'] 
                                                                                                  
 leaky_re_lu_44 (LeakyReLU)     (None, 64, 64, 128)  0           ['layer_normalization_39[0][0]'] 
                                                                                                  
 conv2d_41 (Conv2D)             (None, 64, 64, 128)  147584      ['leaky_re_lu_42[0][0]']         
                                                                                                  
 conv2d_43 (Conv2D)             (None, 64, 64, 128)  409728      ['leaky_re_lu_44[0][0]']         
                                                                                                  
 layer_normalization_38 (LayerN  (None, 64, 64, 128)  8192       ['conv2d_41[0][0]']              
 ormalization)                                                                                    
                                                                                                  
 layer_normalization_40 (LayerN  (None, 64, 64, 128)  8192       ['conv2d_43[0][0]']              
 ormalization)                                                                                    
                                                                                                  
 leaky_re_lu_43 (LeakyReLU)     (None, 64, 64, 128)  0           ['layer_normalization_38[0][0]'] 
                                                                                                  
 leaky_re_lu_45 (LeakyReLU)     (None, 64, 64, 128)  0           ['layer_normalization_40[0][0]'] 
                                                                                                  
 tf.concat_6 (TFOpLambda)       (None, 64, 64, 256)  0           ['leaky_re_lu_43[0][0]',         
                                                                  'leaky_re_lu_45[0][0]']         
                                                                                                  
 conv2d_transpose_3 (Conv2DTran  (None, 64, 64, 128)  295040     ['leaky_re_lu_27[0][0]']         
 spose)                                                                                           
                                                                                                  
 tf.concat_7 (TFOpLambda)       (None, 64, 64, 384)  0           ['tf.concat_6[0][0]',            
                                                                  'leaky_re_lu_5[0][0]']          
                                                                                                  
 leaky_re_lu_29 (LeakyReLU)     (None, 64, 64, 128)  0           ['conv2d_transpose_3[0][0]']     
                                                                                                  
 tf.concat_8 (TFOpLambda)       (None, 64, 64, 512)  0           ['tf.concat_7[0][0]',            
                                                                  'leaky_re_lu_29[0][0]']         
                                                                                                  
 conv2d_44 (Conv2D)             (None, 64, 64, 128)  589952      ['tf.concat_8[0][0]']            
                                                                                                  
 layer_normalization_41 (LayerN  (None, 64, 64, 128)  8192       ['conv2d_44[0][0]']              
 ormalization)                                                                                    
                                                                                                  
 leaky_re_lu_46 (LeakyReLU)     (None, 64, 64, 128)  0           ['layer_normalization_41[0][0]'] 
                                                                                                  
 conv2d_45 (Conv2D)             (None, 64, 64, 128)  147584      ['leaky_re_lu_46[0][0]']         
                                                                                                  
 layer_normalization_42 (LayerN  (None, 64, 64, 128)  8192       ['conv2d_45[0][0]']              
 ormalization)                                                                                    
                                                                                                  
 leaky_re_lu_47 (LeakyReLU)     (None, 64, 64, 128)  0           ['layer_normalization_42[0][0]'] 
                                                                                                  
 conv2d_transpose_4 (Conv2DTran  (None, 128, 128, 64  73792      ['leaky_re_lu_47[0][0]']         
 spose)                         )                                                                 
                                                                                                  
…
 leaky_re_lu_141 (LeakyReLU)    (None, 1024, 1024,   0           ['conv2d_transpose_9[0][0]']     
                                3)                                                                
                                                                                                  
 conv2d_138 (Conv2D)            (None, 1024, 1024,   84          ['leaky_re_lu_141[0][0]']        
                                3)                                                                
                                                                                                  
 conv2d_136 (Conv2D)            (None, 256, 256, 3)  867         ['leaky_re_lu_139[0][0]']        
                                                                                                  
 conv2d_81 (Conv2D)             (None, 128, 128, 3)  1731        ['leaky_re_lu_83[0][0]']         
                                                                                                  
 conv2d_46 (Conv2D)             (None, 64, 64, 3)    3459        ['leaky_re_lu_47[0][0]']         
                                                                                                  
 conv2d_27 (Conv2D)             (None, 32, 32, 3)    6915        ['leaky_re_lu_27[0][0]']         
                                                                                                  
 conv2d_16 (Conv2D)             (None, 16, 16, 3)    13827       ['leaky_re_lu_15[0][0]']         
                                                                                                  
 tf.math.tanh_6 (TFOpLambda)    (None, 1024, 1024,   0           ['conv2d_138[0][0]']             
                                3)                                                                
                                                                                                  
 tf.math.tanh_5 (TFOpLambda)    (None, 512, 512, 3)  0           ['conv2d_137[0][0]']             
                                                                                                  
 tf.math.tanh_4 (TFOpLambda)    (None, 256, 256, 3)  0           ['conv2d_136[0][0]']             
                                                                                                  
 tf.math.tanh_3 (TFOpLambda)    (None, 128, 128, 3)  0           ['conv2d_81[0][0]']              
                                                                                                  
 tf.math.tanh_2 (TFOpLambda)    (None, 64, 64, 3)    0           ['conv2d_46[0][0]']              
                                                                                                  
 tf.math.tanh_1 (TFOpLambda)    (None, 32, 32, 3)    0           ['conv2d_27[0][0]']              
                                                                                                  
 tf.math.tanh (TFOpLambda)      (None, 16, 16, 3)    0           ['conv2d_16[0][0]']              
                                                                                                  
 tf.math.multiply_26 (TFOpLambd  (None, 1024, 1024,   0          ['tf.math.tanh_6[0][0]']         
 a)                             3)                                                                
                                                                                                  
 tf.math.multiply_23 (TFOpLambd  (None, 512, 512, 3)  0          ['tf.math.tanh_5[0][0]']         
 a)                                                                                               
                                                                                                  
 tf.math.multiply_20 (TFOpLambd  (None, 256, 256, 3)  0          ['tf.math.tanh_4[0][0]']         
 a)                                                                                               
                                                                                                  
 tf.math.multiply_19 (TFOpLambd  (None, 128, 128, 3)  0          ['tf.math.tanh_3[0][0]']         
 a)                                                                                               
                                                                                                  
 tf.math.multiply_14 (TFOpLambd  (None, 64, 64, 3)   0           ['tf.math.tanh_2[0][0]']         
 a)                                                                                               
                                                                                                  
 tf.math.multiply_9 (TFOpLambda  (None, 32, 32, 3)   0           ['tf.math.tanh_1[0][0]']         
 )                                                                                                
                                                                                                  
 tf.math.multiply_4 (TFOpLambda  (None, 16, 16, 3)   0           ['tf.math.tanh[0][0]']           
 )                                                                                                
                                                                                                  
 tf.__operators__.add_19 (TFOpL  (None, 1024, 1024,   0          ['tf.math.multiply_26[0][0]']    
 ambda)                         3)                                                                
                                                                                                  
 tf.__operators__.add_18 (TFOpL  (None, 512, 512, 3)  0          ['tf.math.multiply_23[0][0]']    
 ambda)                                                                                           
                                                                                                  
 tf.__operators__.add_17 (TFOpL  (None, 256, 256, 3)  0          ['tf.math.multiply_20[0][0]']    
 ambda)                                                                                           
                                                                                                  
 tf.__operators__.add_13 (TFOpL  (None, 128, 128, 3)  0          ['tf.math.multiply_19[0][0]']    
 ambda)                                                                                           
                                                                                                  
 tf.__operators__.add_9 (TFOpLa  (None, 64, 64, 3)   0           ['tf.math.multiply_14[0][0]']    
 mbda)                                                                                            
                                                                                                  
 tf.__operators__.add_5 (TFOpLa  (None, 32, 32, 3)   0           ['tf.math.multiply_9[0][0]']     
 mbda)                                                                                            
                                                                                                  
 tf.__operators__.add_2 (TFOpLa  (None, 16, 16, 3)   0           ['tf.math.multiply_4[0][0]']     
 mbda)                                                                                            
                                                                                                  
==================================================================================================
Total params: 48,899,706
Trainable params: 48,899,706
Non-trainable params: 0
…
